…
  CROP: True
TRAIN:
  ACCUMULATION_STEPS: 0
  AUTO_RESUME: True
  BASE_LR: 0.1
  CLIP_GRAD: 20.0
  EPOCHS: 200
  LR_SCHEDULER:
    DECAY_EPOCHS: 30
    DECAY_RATE: 0.1
    MILESTONES: [120, 150, 180]
    NAME: multi_step
  MIN_LR: 5e-06
  OPTIMIZER:
    BETAS: (0.9, 0.999)
    EPS: 1e-08
    MOMENTUM: 0.9
    NAME: SDG
  START_EPOCH: 1
  USE_CHECKPOINT: False
  WARMUP_EPOCHS: 0
  WARMUP_LR: 5e-06
  WEIGHT_DECAY: 0.3
image_cnt: 128
sparsity: 0.5
update_epoch: 120
update_freq: 3
Thu 20 Jun 2024 09:29:31 INFO DataParallel(
  (module): VGG(
    (features): Sequential(
      (conv0): Conv2d(3, 64, kernel_size=(3, 3), stride=(1, 1), padding=(1, 1))
      (norm0): BatchNorm2d(64, eps=1e-05, momentum=0.1, affine=True, track_running_stats=True)
      (relu0): ReLU(inplace=True)
      (conv1): MaskConv(64, 64, kernel_size=(3, 3), stride=(1, 1), padding=(1, 1))
      (norm1): BatchNorm2d(64, eps=1e-05, momentum=0.1, affine=True, track_running_stats=True)
      (relu1): ReLU(inplace=True)
      (pool2): MaxPool2d(kernel_size=2, stride=2, padding=0, dilation=1, ceil_mode=False)
      (conv3): MaskConv(64, 128, kernel_size=(3, 3), stride=(1, 1), padding=(1, 1))
      (norm3): BatchNorm2d(128, eps=1e-05, momentum=0.1, affine=True, track_running_stats=True)
      (relu3): ReLU(inplace=True)
      (conv4): MaskConv(128, 128, kernel_size=(3, 3), stride=(1, 1), padding=(1, 1))
      (norm4): BatchNorm2d(128, eps=1e-05, momentum=0.1, affine=True, track_running_stats=True)
      (relu4): ReLU(inplace=True)
      (pool5): MaxPool2d(kernel_size=2, stride=2, padding=0, dilation=1, ceil_mode=False)
      (conv6): MaskConv(128, 256, kernel_size=(3, 3), stride=(1, 1), padding=(1, 1))
      (norm6): BatchNorm2d(256, eps=1e-05, momentum=0.1, affine=True, track_running_stats=True)
      (relu6): ReLU(inplace=True)
      (conv7): MaskConv(256, 256, kernel_size=(3, 3), stride=(1, 1), padding=(1, 1))
      (norm7): BatchNorm2d(256, eps=1e-05, momentum=0.1, affine=True, track_running_stats=True)
      (relu7): ReLU(inplace=True)
      (conv8): MaskConv(256, 256, kernel_size=(3, 3), stride=(1, 1), padding=(1, 1))
      (norm8): BatchNorm2d(256, eps=1e-05, momentum=0.1, affine=True, track_running_stats=True)
      (relu8): ReLU(inplace=True)
      (pool9): MaxPool2d(kernel_size=2, stride=2, padding=0, dilation=1, ceil_mode=False)
      (conv10): MaskConv(256, 512, kernel_size=(3, 3), stride=(1, 1), padding=(1, 1))
      (norm10): BatchNorm2d(512, eps=1e-05, momentum=0.1, affine=True, track_running_stats=True)
      (relu10): ReLU(inplace=True)
      (conv11): MaskConv(512, 512, kernel_size=(3, 3), stride=(1, 1), padding=(1, 1))
      (norm11): BatchNorm2d(512, eps=1e-05, momentum=0.1, affine=True, track_running_stats=True)
      (relu11): ReLU(inplace=True)
      (conv12): MaskConv(512, 512, kernel_size=(3, 3), stride=(1, 1), padding=(1, 1))
      (norm12): BatchNorm2d(512, eps=1e-05, momentum=0.1, affine=True, track_running_stats=True)
      (relu12): ReLU(inplace=True)
      (pool13): MaxPool2d(kernel_size=2, stride=2, padding=0, dilation=1, ceil_mode=False)
      (conv14): MaskConv(512, 512, kernel_size=(3, 3), stride=(1, 1), padding=(1, 1))
      (norm14): BatchNorm2d(512, eps=1e-05, momentum=0.1, affine=True, track_running_stats=True)
      (relu14): ReLU(inplace=True)
      (conv15): MaskConv(512, 512, kernel_size=(3, 3), stride=(1, 1), padding=(1, 1))
      (norm15): BatchNorm2d(512, eps=1e-05, momentum=0.1, affine=True, track_running_stats=True)
      (relu15): ReLU(inplace=True)
      (conv16): MaskConv(512, 512, kernel_size=(3, 3), stride=(1, 1), padding=(1, 1))
      (norm16): BatchNorm2d(512, eps=1e-05, momentum=0.1, affine=True, track_running_stats=True)
      (relu16): ReLU(inplace=True)
    )
    (classifier): Sequential(
      (linear1): Linear(in_features=512, out_features=512, bias=True)
      (norm1): BatchNorm1d(512, eps=1e-05, momentum=0.1, affine=True, track_running_stats=True)
      (relu1): ReLU(inplace=True)
      (linear2): Linear(in_features=512, out_features=10, bias=True)
    )
  )
)
Thu 20 Jun 2024 09:31:19 INFO AUG:
  AUTO_AUGMENT: rand-m9-mstd0.5-inc1
  COLOR_JITTER: 0.4
  CUTMIX: 0.0
  CUTMIX_MINMAX: None
  MIXUP: 0
  MIXUP_MODE: batch
  MIXUP_PROB: 0.0
  MIXUP_SWITCH_PROB: 0.0
  RECOUNT: 1
  REMODE: pixel
  REPROB: 0.25
BASE: ['']
DATA:
  BATCH_SIZE: 256
  IMG_SIZE: 32
  INTERPOLATION: bicubic
  NAME: cifar
…
